…
<span class="k">print</span><span class="p">(</span><span class="s">"Num params: "</span><span class="p">,</span> <span class="nb">sum</span><span class="p">(</span><span class="n">p</span><span class="p">.</span><span class="n">numel</span><span class="p">()</span> <span class="k">for</span> <span class="n">p</span> <span class="ow">in</span> <span class="n">model</span><span class="p">.</span><span class="n">parameters</span><span class="p">()))</span>
<span class="n">model</span>
</code></pre></div></div>

<div class="language-plaintext highlighter-rouge"><div class="highlight"><pre class="highlight"><code>Num params:  62438883





SimpleUnet(
  (time_mlp): Sequential(
    (0): SinusoidalPositionEmbeddings()
    (1): Linear(in_features=32, out_features=32, bias=True)
    (2): ReLU()
  )
  (conv0): Conv2d(3, 64, kernel_size=(3, 3), stride=(1, 1), padding=(1, 1))
  (downs): ModuleList(
    (0): Block(
      (time_mlp): Linear(in_features=32, out_features=128, bias=True)
      (conv1): Conv2d(64, 128, kernel_size=(3, 3), stride=(1, 1), padding=(1, 1))
      (transform): Conv2d(128, 128, kernel_size=(4, 4), stride=(2, 2), padding=(1, 1))
      (conv2): Conv2d(128, 128, kernel_size=(3, 3), stride=(1, 1), padding=(1, 1))
      (bnorm1): BatchNorm2d(128, eps=1e-05, momentum=0.1, affine=True, track_running_stats=True)
      (bnorm2): BatchNorm2d(128, eps=1e-05, momentum=0.1, affine=True, track_running_stats=True)
      (relu): ReLU()
    )
    (1): Block(
      (time_mlp): Linear(in_features=32, out_features=256, bias=True)
      (conv1): Conv2d(128, 256, kernel_size=(3, 3), stride=(1, 1), padding=(1, 1))
      (transform): Conv2d(256, 256, kernel_size=(4, 4), stride=(2, 2), padding=(1, 1))
      (conv2): Conv2d(256, 256, kernel_size=(3, 3), stride=(1, 1), padding=(1, 1))
      (bnorm1): BatchNorm2d(256, eps=1e-05, momentum=0.1, affine=True, track_running_stats=True)
      (bnorm2): BatchNorm2d(256, eps=1e-05, momentum=0.1, affine=True, track_running_stats=True)
      (relu): ReLU()
    )
    (2): Block(
      (time_mlp): Linear(in_features=32, out_features=512, bias=True)
      (conv1): Conv2d(256, 512, kernel_size=(3, 3), stride=(1, 1), padding=(1, 1))
      (transform): Conv2d(512, 512, kernel_size=(4, 4), stride=(2, 2), padding=(1, 1))
      (conv2): Conv2d(512, 512, kernel_size=(3, 3), stride=(1, 1), padding=(1, 1))
      (bnorm1): BatchNorm2d(512, eps=1e-05, momentum=0.1, affine=True, track_running_stats=True)
      (bnorm2): BatchNorm2d(512, eps=1e-05, momentum=0.1, affine=True, track_running_stats=True)
      (relu): ReLU()
    )
    (3): Block(
      (time_mlp): Linear(in_features=32, out_features=1024, bias=True)
      (conv1): Conv2d(512, 1024, kernel_size=(3, 3), stride=(1, 1), padding=(1, 1))
      (transform): Conv2d(1024, 1024, kernel_size=(4, 4), stride=(2, 2), padding=(1, 1))
      (conv2): Conv2d(1024, 1024, kernel_size=(3, 3), stride=(1, 1), padding=(1, 1))
      (bnorm1): BatchNorm2d(1024, eps=1e-05, momentum=0.1, affine=True, track_running_stats=True)
      (bnorm2): BatchNorm2d(1024, eps=1e-05, momentum=0.1, affine=True, track_running_stats=True)
      (relu): ReLU()
    )
  )
  (ups): ModuleList(
    (0): Block(
      (time_mlp): Linear(in_features=32, out_features=512, bias=True)
      (conv1): Conv2d(2048, 512, kernel_size=(3, 3), stride=(1, 1), padding=(1, 1))
      (transform): ConvTranspose2d(512, 512, kernel_size=(4, 4), stride=(2, 2), padding=(1, 1))
      (conv2): Conv2d(512, 512, kernel_size=(3, 3), stride=(1, 1), padding=(1, 1))
      (bnorm1): BatchNorm2d(512, eps=1e-05, momentum=0.1, affine=True, track_running_stats=True)
      (bnorm2): BatchNorm2d(512, eps=1e-05, momentum=0.1, affine=True, track_running_stats=True)
      (relu): ReLU()
    )
    (1): Block(
      (time_mlp): Linear(in_features=32, out_features=256, bias=True)
      (conv1): Conv2d(1024, 256, kernel_size=(3, 3), stride=(1, 1), padding=(1, 1))
      (transform): ConvTranspose2d(256, 256, kernel_size=(4, 4), stride=(2, 2), padding=(1, 1))
      (conv2): Conv2d(256, 256, kernel_size=(3, 3), stride=(1, 1), padding=(1, 1))
      (bnorm1): BatchNorm2d(256, eps=1e-05, momentum=0.1, affine=True, track_running_stats=True)
      (bnorm2): BatchNorm2d(256, eps=1e-05, momentum=0.1, affine=True, track_running_stats=True)
      (relu): ReLU()
    )
    (2): Block(
      (time_mlp): Linear(in_features=32, out_features=128, bias=True)
      (conv1): Conv2d(512, 128, kernel_size=(3, 3), stride=(1, 1), padding=(1, 1))
      (transform): ConvTranspose2d(128, 128, kernel_size=(4, 4), stride=(2, 2), padding=(1, 1))
      (conv2): Conv2d(128, 128, kernel_size=(3, 3), stride=(1, 1), padding=(1, 1))
      (bnorm1): BatchNorm2d(128, eps=1e-05, momentum=0.1, affine=True, track_running_stats=True)
      (bnorm2): BatchNorm2d(128, eps=1e-05, momentum=0.1, affine=True, track_running_stats=True)
      (relu): ReLU()
    )
    (3): Block(
      (time_mlp): Linear(in_features=32, out_features=64, bias=True)
      (conv1): Conv2d(256, 64, kernel_size=(3, 3), stride=(1, 1), padding=(1, 1))
      (transform): ConvTranspose2d(64, 64, kernel_size=(4, 4), stride=(2, 2), padding=(1, 1))
      (conv2): Conv2d(64, 64, kernel_size=(3, 3), stride=(1, 1), padding=(1, 1))
      (bnorm1): BatchNorm2d(64, eps=1e-05, momentum=0.1, affine=True, track_running_stats=True)
      (bnorm2): BatchNorm2d(64, eps=1e-05, momentum=0.1, affine=True, track_running_stats=True)
      (relu): ReLU()
    )
  )
  (output): Conv2d(64, 3, kernel_size=(1, 1), stride=(1, 1))
)
</code></pre></div></div>

<p><strong>Further improvements that can be implemented:</strong></p>
<ul>
  <li>Residual connections</li>
  <li>Different activation functions like SiLU, GWLU, …</li>
  <li>BatchNormalization</li>
  <li>GroupNormalization</li>
  <li>Attention</li>
  <li>…</li>
</ul>

<h2 id="step-3-the-loss">Step 3: The loss</h2>

<p><strong>Key Takeaways:</strong></p>
…
{'epoch': 1, 'iter': 6920, 'avg_loss': 5.773589925844534, 'avg_acc': 49.94581707845687, 'loss': 5.892418384552002}


EP_train:1: 100%|| 6926/6926 [26:54:53&lt;00:00, 13.99s/it]

EP1, train:             avg_loss=5.773454445757137,             total_acc=49.949010901739946
</code></pre></div></div>

<div class="language-python highlighter-rouge"><div class="highlight"><pre class="highlight"><code><span class="n">bert_lm</span>
</code></pre></div></div>

<div class="language-plaintext highlighter-rouge"><div class="highlight"><pre class="highlight"><code>BERTLM(
  (bert): BERT(
    (embedding): BERTEmbedding(
      (token): Embedding(21159, 768, padding_idx=0)
      (segment): Embedding(3, 768, padding_idx=0)
      (position): PositionalEmbedding()
      (dropout): Dropout(p=0.1, inplace=False)
    )
    (encoder_blocks): ModuleList(
      (0-11): 12 x EncoderLayer(
        (layernorm): LayerNorm((768,), eps=1e-05, elementwise_affine=True)
        (self_multihead): MultiHeadedAttention(
          (dropout): Dropout(p=0.1, inplace=False)
          (query): Linear(in_features=768, out_features=768, bias=True)
          (key): Linear(in_features=768, out_features=768, bias=True)
          (value): Linear(in_features=768, out_features=768, bias=True)
          (output_linear): Linear(in_features=768, out_features=768, bias=True)
        )
        (feed_forward): FeedForward(
          (fc1): Linear(in_features=768, out_features=3072, bias=True)
          (fc2): Linear(in_features=3072, out_features=768, bias=True)
          (dropout): Dropout(p=0.1, inplace=False)
          (activation): GELU(approximate='none')
        )
        (dropout): Dropout(p=0.1, inplace=False)
      )
    )
  )
  (next_sentence): NextSentencePrediction(
    (linear): Linear(in_features=768, out_features=2, bias=True)
    (softmax): LogSoftmax(dim=-1)
  )
  (mask_lm): MaskedLanguageModel(
    (linear): Linear(in_features=768, out_features=21159, bias=True)
    (softmax): LogSoftmax(dim=-1)
  )
)
</code></pre></div></div>

<div class="language-python highlighter-rouge"><div class="highlight"><pre class="highlight"><code><span class="kn">import</span> <span class="nn">os</span>

<span class="c1"># Saving best-practices: if you use defaults names for the model, you can reload it using from_pretrained()
</span>
…
